models/ddos_ann.pth (torch, 46994 bytes, 5 tensors)

fc1.weight f4 [100, 8]
000000 d1 c6 56 3e f5 3d a7 be a9 b9 86 3e 81 ea fd 3e
       0.2097428 -0.32664457 0.26313522 0.49592975
000010 50 21 5a be 5f e1 e5 bd 73 bc 17 be 06 72 10 3e
       -0.2130177 -0.11224627 -0.14817981 0.14105996
000020 70 50 ad bd c9 d1 95 3b 60 42 9f be 58 6a 14 bd
       -0.08462608 0.0045721275 -0.31105328 -0.03623423
000030 e1 eb af be 89 71 db bd 30 71 fd bd ed 55 4b bd
       -0.3435965 -0.107150145 -0.123751044 -0.049642492
000040 75 57 27 bd 8b e1 41 bb 49 79 05 3f eb e1 1f 3f
       -0.04085489 -0.0029583897 0.5213819 0.624541
000050 79 d9 fe 3d dd b9 75 be 5d 00 93 be 80 02 22 bd
       0.12443823 -0.23996682 -0.28711215 -0.039553165
000060 b9 be be 3e d6 2d 2a be d3 7a d4 3e af 0b 4d 3e
       0.37254885 -0.16619048 0.41499957 0.20023988
000070 a3 0e e3 bd 31 a3 a4 3e eb 62 99 3e fe 5a 8e 3d
       -0.11086776 0.32155755 0.2995828 0.06950949
000080 4d 91 1f 3f 5c 11 67 be 35 ef 3b be c0 8a 53 3e
       0.62331086 -0.22565216 -0.18352969 0.20658398
000090 86 01 45 3e 13 2c 43 3e 4f 53 fc bc a0 3d bd 3d
       0.19238862 0.19059782 -0.030801443 0.0924027
0000a0 44 1c 80 bf 95 b8 60 3d 87 cd 76 bd df c9 15 3d
       -1.0008626 0.05486353 -0.0602546 0.036569472
0000b0 05 9d 1b bf 6f ec 29 be 0d fe 2b be e8 f6 39 bc
       -0.6078647 -0.16594099 -0.16796131 -0.011350371
0000c0 f9 61 36 3e 0b 11 68 be f0 72 6e 3e fc 98 11 3d
       0.17810811 -0.22662751 0.23286033 0.035546288
0000d0 42 67 81 3d d9 2e 3f be 1b d8 28 bd a5 9f 65 3d
       0.06318523 -0.18670215 -0.04122172 0.056060452
0000e0 4d 8b e8 3e 67 7e 82 3d 58 20 da 3e 8d 76 ee be
       0.45418778 0.063717656 0.426028 -0.46574822
0000f0 d6 b8 36 3d ae 16 5c bd d6 d0 a0 bd fd 92 8d bc
       0.044609867 -0.053732567 -0.07852332 -0.017282004
000100 0e b9 f4 be fa 53 a5 3b d8 5b dd be b7 0e fd bb
       -0.47797436 0.005045411 -0.43234134 -0.0077227014
000110 e7 6f a0 3d e1 db 0f be 5d 39 05 be e1 63 ee bd
       0.07833844 -0.14048721 -0.13010164 -0.11640144
000120 97 62 b1 3a 21 60 dc 3e 77 8d 87 3e 1a 02 7b 3d
       0.001353341 0.4304209 0.26475117 0.0612813
000130 28 b8 fd be 8b b1 a7 3e 28 50 5c be c8 9e 8b 3e
       -0.49554563 0.32752642 -0.21514952 0.27269578
000140 7f cb af be 82 ea aa be 68 86 06 be 0f b0 83 be
       -0.34334943 -0.3338204 -0.1313721 -0.2572026
000150 cd 23 f1 3d ce da 43 3d 00 1e 5d 3d 6d 13 05 3e
       0.117744066 0.04781609 0.05398369 0.12995692
000160 6d 88 7d bf 25 a5 86 bd 51 13 83 be f8 96 b9 bd
       -0.99036294 -0.065744676 -0.25600675 -0.09061998
000170 a8 cb 2b bf 63 42 0f 3d 2d f5 db 3c 07 2f 8e bc
       -0.6710763 0.03497542 0.026850307 -0.017356409
000180 a9 f7 1c bd d1 41 a4 3e 4b ac 11 3f 70 d6 26 3f
       -0.038322125 0.32081464 0.56903523 0.65170956
000190 b3 d5 3e 3e b8 4e 78 3b 21 c4 68 3c fa 9d 48 bc
       0.18636207 0.0037888717 0.014206917 -0.012244696
0001a0 09 ea 0b bf 74 b6 8a bd b8 78 0e bf 92 f0 cd 3d
       -0.54653984 -0.067730814 -0.5565295 0.10055651
0001b0 dd e7 03 3e d6 9d 6b bd d4 a2 44 bd 90 91 04 be
       0.12881418 -0.05752357 -0.048006848 -0.12946153
0001c0 96 d5 e9 bc 9d aa 6e 3c 1b d8 a6 be e9 9b 29 3e
       -0.028544229 0.014567045 -0.3258675 0.16563381
0001d0 9c a2 43 3f f7 c1 bb ba a6 51 32 3c fc 48 8d 3d
       0.7642 -0.0014324774 0.010883724 0.06898686
0001e0 cb ca f6 be 65 6c e8 3d 7f 69 80 be 73 3a d3 bd
       -0.48201594 0.113487996 -0.25080487 -0.10313883
0001f0 d5 32 cd be 07 bc 9d 3e 37 9c a3 3e 88 8c 48 3c
       -0.40077844 0.30807516 0.3195512 0.0122405365
000200 c4 c0 10 be f1 5d 7b be 30 a5 e9 bd 14 1a e1 3d
       -0.14136034 -0.24547555 -0.1140846 0.10991302
000210 a1 06 e3 3e 2f 0d 43 be d2 df fa 3c 19 34 3b be
       0.44340995 -0.19047998 0.030624304 -0.18281592
000220 26 25 2b bf ad ef b2 bd 24 21 61 be 1f 78 93 be
       -0.6685356 -0.08737121 -0.21985298 -0.28802583
000230 26 cd 12 bf e9 ba 22 be 2b b3 30 be 22 39 06 3c
       -0.5734428 -0.15891613 -0.17255847 0.008192332
000240 79 8c 7c 3f e4 38 1f 3e 67 57 85 3e f7 77 75 bd
       0.98651844 0.15549046 0.26043245 -0.05992886
000250 ea 6e 52 3d e4 2e 48 3e 18 80 3d 3e ad fe 6a bb
       0.051375307 0.19549137 0.18505895 -0.0035857365
000260 13 3d 84 3e 29 a0 5d 3e ff 11 30 be 40 18 0c 3e
       0.25827846 0.21643128 -0.17194365 0.13681126
000270 ed 29 1e 3f 42 e4 25 3d 00 0e 4e be a1 49 40 bd
       0.61782724 0.040500887 -0.20122528 -0.046945218
000280 ce e6 7c bf b8 ae 55 be fa 68 0c be 5f ce ca be
       -0.9878968 -0.20867431 -0.1371192 -0.39610574
000290 cf 7f aa be cb 63 52 3e 65 49 3f 3e 48 d7 7a bb
       -0.33300635 0.2054588 0.18680342 -0.003827529
0002a0 96 60 1f be 40 40 ac bd 5a 61 52 be e6 52 38 3e
       -0.15564188 -0.08410692 -0.20544949 0.18000373
0002b0 1d 0b 1e 3f 37 38 0c be a4 2f 29 3e 20 ae 32 3e
       0.6173571 -0.1369332 0.1652208 0.17449236
0002c0 e9 43 b3 3f 93 76 20 be 6a 7b 94 3e 90 bb 6a 3e
       1.40051 -0.15670232 0.29000407 0.22923112
0002d0 5d 4b c7 3e 1f 79 16 bc 6c fe b2 bb e9 35 4c 3c
       0.38924685 -0.009184151 -0.0054624584 0.012464025
0002e0 78 56 a0 be 71 03 84 3e 29 1e 83 be 21 21 9d 3e
       -0.3131597 0.25783876 -0.25608948 0.30689338
0002f0 67 7b 9a bc f0 fe 79 3c 62 6a f5 bd c0 e3 41 bd
       -0.018857671 0.015258536 -0.119831815 -0.04733634
000300 72 25 b7 bb ca ae 43 be 5a 75 4b be f3 8c bc ba
       -0.0055891806 -0.19109645 -0.19868985 -0.0014385268
000310 4d ea 24 3f 8a 4f 94 3e 1c e7 83 3e 25 9c 0e be
       0.64420015 0.28966933 0.2576226 -0.13926752
000320 22 2f b2 3c 84 9e 98 3e fd 6f bb be 00 2e 35 3e
       0.02175099 0.29808438 -0.36608878 0.17693329
000330 96 fb 1a 3f dd 0e 90 be 07 7e 85 3e e4 4b c5 3d
       0.6054014 -0.2813634 0.26072714 0.096336156
000340 8e 31 c8 be 94 08 0e be 05 7f e1 3e fd c5 82 be
       -0.39100307 -0.1387046 0.4404222 -0.25541678
000350 89 89 27 3f 2f 26 9b 3e c6 15 ae bd 1d e0 27 be
       0.65444237 0.3030257 -0.08500247 -0.16394086
000360 2a 1f bd be 31 03 07 be 68 c0 92 be c9 bc 70 3e
       -0.3693784 -0.13184811 -0.2866242 0.23509516
000370 8c 20 81 be 09 f4 90 be 3f 5e 17 3e a7 ad 0b bd
       -0.25220144 -0.28311184 0.14782046 -0.034101155
000380 dd 9d 12 be 23 0a 7a be b6 d1 cc bd 8e 43 61 3f
       -0.14318033 -0.2441793 -0.10000937 0.87993705
000390 76 17 5e 3f 56 5a 18 be 78 01 28 be e4 64 da bd
       0.8675455 -0.1487821 -0.1640681 -0.106637746
0003a0 23 de dc bc bf 7c a7 3d 92 a7 b8 3e 71 4c dd 3e
       -0.026961392 0.0817809 0.36065346 0.43222383
0003b0 8f 82 25 be 15 1f 65 be ba 6f 6f be 4d 19 9c bb
       -0.16163085 -0.22375138 -0.23382464 -0.0047637583
0003c0 21 51 87 be dc ad ad be 6a 3b e5 3d 3e ac 29 3c
       -0.26429084 -0.33921707 0.11192973 0.010356007
0003d0 d2 f6 fd bd 19 cd 06 be 35 66 21 be 14 73 2a 3e
       -0.12400593 -0.13164176 -0.15761645 0.16645461
0003e0 d8 dd 9b 3f ce 4b a7 bc f1 95 6b 3e ff b9 87 3e
       1.2177076 -0.020421889 0.23006417 0.2650909
0003f0 de 3d 91 3d df 12 6d bd 56 2a 4a bd 3c 2f 7c 3d
       0.07091878 -0.057879325 -0.04935678 0.061568484

fc1.bias f4 [100]
000000 24 ce e9 bd ce ee a3 be 61 75 87 bd ca 02 3a be
       -0.11416271 -0.3201813 -0.06614185 -0.18165126
000010 18 9a 5a be f2 09 b4 3e 81 42 22 be f2 67 bf 3d
       -0.21347845 0.35163838 -0.15845682 0.09345998
000020 1d 4b 81 3e 36 29 57 bd f0 d4 86 3e 8e 6b 47 3e
       0.2525262 -0.052529536 0.26334333 0.19474623
000030 cc ef 6f be de 61 a1 3e 24 62 64 be 19 40 b2 3e
       -0.23431319 0.3151998 -0.22303063 0.34814528
000040 83 2d 6a be c2 fe 49 3c ce b0 55 3d 02 ee 21 3e
       -0.22868924 0.012328805 0.052170567 0.15813449
000050 17 c0 9e 3e 30 15 e8 3d a5 35 f6 3d a0 72 5f bc
       0.31005928 0.11332166 0.12021951 -0.013638169
000060 a3 b5 62 be d8 55 13 be 15 c4 95 bd 06 69 78 be
       -0.22139601 -0.14388216 -0.0731279 -0.24258813
000070 ec a0 a6 be b5 84 29 3d c7 0f 47 be d1 a5 ff bc
       -0.3254465 0.041386325 -0.19439612 -0.031206997
000080 1e 22 8e 3e c6 a9 18 be 6f d9 5e 3c 1e 91 cd bc
       0.27760404 -0.14908513 0.013601645 -0.025093611
000090 69 ed d0 3d ea 57 fb 3d 32 46 31 3e 2f f7 57 3e
       0.102015324 0.12272628 0.17311934 0.21090387
0000a0 5f f2 a7 bd 1e 65 75 be 59 83 43 be 9f 15 b4 3e
       -0.082005255 -0.23964354 -0.19093074 0.35172746
0000b0 fb db 6a be d2 47 e2 3d 0c 2e 00 3e 9c 3f 5a 3e
       -0.22935478 0.11048855 0.12517565 0.21313328
0000c0 5e 21 8f bb b1 14 a1 3d 1d fe 80 be ee 09 f7 bd
       -0.0043679914 0.07865275 -0.25193873 -0.12062441
0000d0 d3 02 f6 3d 2a 7a 97 be 42 65 8e 3e 5d f2 ae be
       0.120122574 -0.2958539 0.2781163 -0.34169284
0000e0 78 bf 79 bd f9 03 1c be 4e ee 04 bf 2d c4 54 3e
       -0.060973614 -0.1523589 -0.51926124 0.2077796
0000f0 b9 8d 59 bc 22 ab d2 be 8b 55 07 bf e9 17 39 be
       -0.013278418 -0.4114619 -0.52864903 -0.18075527
000100 34 81 63 bd d9 74 b5 be 40 04 5c be 8d c0 76 3e
       -0.05554314 -0.3544071 -0.21485996 0.2409689
000110 65 f1 b5 be 03 aa 93 bd 91 79 65 bd 70 cc 83 be
       -0.35535732 -0.072101615 -0.056024138 -0.2574191
000120 71 1c 29 be 9f 8f 38 3e 43 17 86 bb 3a a4 f8 bd
       -0.16514756 0.18023537 -0.0040921285 -0.12140699
000130 bd 9a ad be a4 51 62 be c5 4a 16 bd 64 34 e4 be
       -0.33907118 -0.22101456 -0.0366924 -0.4457122
000140 61 48 85 3e 41 69 22 3e 18 07 4e bd 49 38 5b be
       0.26031783 0.15860464 -0.050299734 -0.2140819
000150 aa 93 8d be ca db 5a bc 14 7c a9 bd fd bc 14 be
       -0.2765172 -0.013358066 -0.08275619 -0.14525218
000160 50 ec 4a be 88 1d 9e bd 6a 52 41 be 2a d8 9d bd
       -0.19816709 -0.077204764 -0.18879095 -0.07707246
000170 73 28 fd bd 1f 53 99 3e d6 41 7c be 3f 85 41 3e
       -0.12361231 0.2994623 -0.2463449 0.18898486
000180 cf d2 87 3a 11 45 b7 3d ed eb 0f bd 5b 60 18 be
       0.0010362508 0.0894872 -0.035137106 -0.14880507

fc2.weight f4 [100, 100]
000000 82 c7 d0 bd 97 48 18 bd 29 bd d3 be e4 2c c5 3d
       -0.10194303 -0.037178602 -0.41355255 0.09627703
000010 b7 e1 9a 3d bb b3 bf bf bf 04 79 3a 21 67 c3 3d
       0.07562583 -1.4976724 0.00094993034 0.09541155
000020 0c 85 bb bc d1 59 26 3c 8f e4 19 3e 29 12 43 bf
       -0.02289059 0.01015325 0.15028594 -0.76199585
000030 3c 47 17 bf d7 a7 eb bd 6b b7 19 be 10 67 89 bd
       -0.5909307 -0.11506622 -0.15011375 -0.06709111
000040 95 19 9a 3e 31 61 80 be 00 de 66 3e 72 b4 55 3c
       0.30097643 -0.2507415 0.22545624 0.01304351
000050 22 0d f7 be f2 a5 00 3e b2 59 29 3e cf 04 67 bd
       -0.48252207 0.12563303 0.16538122 -0.05640107
000060 f5 82 36 bc 49 1d a6 3c 57 56 92 be 8f e4 9f 3d
       -0.011139621 0.020277636 -0.28581497 0.07807266
000070 2f 38 b2 3f 3f f0 cf 3d 9b de c3 be 20 28 57 3e
       1.3923396 0.10153245 -0.38255772 0.210114
000080 8a 6e f1 3e a1 6f 03 bf 00 88 b9 3e 6d 11 27 bd
       0.47154647 -0.5134221 0.36236572 -0.040788103
000090 50 cd 8d 3e 59 73 24 3e ba 40 77 be a0 fe 92 bf
       0.27695704 0.16059627 -0.24145785 -1.1483955
0000a0 c4 11 2c 3e eb fb f0 3c fb 36 31 3f f6 94 4f 3e
       0.16803652 0.029416999 0.6922452 0.20271668
0000b0 a4 49 7c 3e 9e e8 14 3e 60 c3 1f 3c a8 d9 11 3e
       0.24637467 0.14541861 0.009751171 0.14243186
0000c0 ae 52 63 bd 6e b0 9b be 2d e4 ee 3d 74 c2 3f 3e
       -0.05549877 -0.30408043 0.11664615 0.18726522
0000d0 4e 99 d3 be 5c 73 11 bf 58 33 10 bd ae e9 2a 3d
       -0.413279 -0.5681665 -0.035205215 0.04172676
0000e0 7a 9d 69 3e 8f 4e f2 be e6 d5 0c bd 42 08 43 be
       0.22813979 -0.4732556 -0.034383677 -0.19046119
0000f0 0e 15 92 3b 83 25 70 bc 60 af b4 bd 3d 2d 5a 3e
       0.0044580763 -0.014657381 -0.088225126 0.2130632
000100 d3 e9 89 bd d6 6f 73 3d 7e 59 73 bd 05 50 92 bd
       -0.067340516 0.059432827 -0.05941152 -0.07144169
000110 f0 7f 24 3f 87 1c 40 bf fa 25 b5 3b 48 7f 99 3b
       0.6425772 -0.7504353 0.005528209 0.0046843626
000120 3f 3b 0c be bd 3d 83 be 2a 10 1c 3d 80 ec 27 3e
       -0.13694476 -0.2563304 0.038101353 0.16398811
000130 d9 29 16 be 4b cf c5 be 0f 75 c0 be ff 69 9f 3d
       -0.14664401 -0.38634714 -0.3758931 0.07783889
000140 05 b8 bf bd 7d af 3a 3e 5f f3 90 3e ce e3 a0 3e
       -0.09361271 0.18231006 0.28310677 0.314238
000150 fa 92 01 3e 27 f6 f0 3d 03 95 a2 bd 95 9f 0b 3e
       0.12653723 0.117657 -0.07938578 0.13635094
000160 92 64 c3 3f 37 ce 0a 3f 01 52 30 bf 78 99 ad 3f
       1.5265067 0.5422091 -0.6887513 1.356246
000170 ea 67 89 3d 0c fd c5 bd 70 77 ec bd 82 e5 66 3e
       0.06709273 -0.096674055 -0.115462184 0.22548488
000180 ba 76 0f bf 78 ff b1 3d 7c 81 68 be 58 34 0e be
       -0.5604054 0.08691305 -0.22705644 -0.13887155
000190 cc a7 1c 3e 16 0c 19 3e d0 42 94 bd 03 ab 3e 3e
       0.15298384 0.14946017 -0.07239306 0.18619923
0001a0 be f4 99 bd 3e 43 a6 be 17 bc 1d 3d ea ed cd 3d
       -0.07517384 -0.32473177 0.038509455 0.10055144
0001b0 2f 4d 18 3e cf dc 0a be 75 c6 92 bd 58 5c 23 be
       0.14873193 -0.13560794 -0.07166759 -0.15953195
0001c0 34 72 24 be 1e 1f f3 3d 8f e5 99 3d eb 53 a6 3c
       -0.1605919 0.118711695 0.07514488 0.020303687
0001d0 c6 07 05 3d d9 b4 a6 be 03 8c 12 3e 84 de 09 bc
       0.032478116 -0.3255985 0.14311223 -0.008414868
0001e0 6e 0e 16 bf 87 cb 22 bd 04 6a 0f bc 4a ff 0e 3e
       -0.5861577 -0.03974488 -0.008753303 0.13964573
0001f0 d7 b0 90 be db 1a 17 3e 22 fc 82 bd f3 a1 d9 3d
       -0.28259918 0.14756338 -0.06395747 0.106265925
000200 7a 53 85 3f f7 0b b7 3e d1 14 3b bd 59 88 85 3b
       1.04161 0.35751316 -0.04567415 0.004075092
000210 47 ff ac bd 3a 46 a4 be 79 04 8b 3d d2 fe ad 3d
       -0.08447128 -0.3208483 0.067879625 0.08495869
000220 98 83 d1 3e 80 1d f9 3d 79 62 c7 be c7 61 8b be
       0.4092071 0.1216383 -0.38942316 -0.27223036
000230 82 1e 24 bd a4 2e b8 3e fe 48 84 3e 0d 0b e7 3d
       -0.040068157 0.35973084 0.2583694 0.11281405
000240 7e f2 7f 3e c3 c3 ba 3c 3c 7e 8c 3d 4e 33 b8 bd
       0.24994847 0.022798425 0.06860015 -0.089941606
000250 f8 17 c6 3d ee 26 6f bf 81 a2 ed bc 6e 59 19 3e
       0.096725404 -0.93418777 -0.029008152 0.14975521
000260 fc c3 38 be 4a 88 fa be ec d5 e9 3d ea 8c 8b 3b
       -0.18043512 -0.48932105 0.114177555 0.0042587416
000270 94 59 98 3d 66 aa 70 bd bf 45 ed bc 84 55 db 3d
       0.07438961 -0.058756255 -0.028963922 0.1070967
000280 59 53 61 be 96 d5 8c be 7a ed 43 bd 15 db a8 bd
       -0.22004451 -0.27506703 -0.047833897 -0.082449116
000290 8a 48 a3 3c 93 93 67 bd 3d bd 27 3d b3 78 e7 3c
       0.01993205 -0.056537222 0.040951956 0.028255796
0002a0 f9 70 19 bd f3 ce 4b bf 61 81 0a 3e e3 67 18 3e
       -0.037461255 -0.79612654 0.13525917 0.1488338
0002b0 e2 4c 82 3e 18 08 ea be 80 5e ad 3b b6 7d 59 3d
       0.25449282 -0.457093 0.0052908063 0.053098403
0002c0 d2 de 27 bc c8 a6 54 bc 99 d2 01 bf ac 76 ca bd
       -0.010245996 -0.012979217 -0.5071197 -0.09885916
0002d0 a1 51 85 3d 47 99 45 be 3b 72 08 3e 3e b2 28 be
       0.0650971 -0.19296752 0.13324825 -0.16474244
0002e0 d5 b5 17 3e 74 50 d0 3d bc 64 08 be 49 8b 24 bc
       0.14815457 0.10171595 -0.13319677 -0.010042974
0002f0 60 a5 ac 3f e3 94 58 3e 1e 30 05 bf 63 f3 8a 3f
       1.3487968 0.21150546 -0.52026546 1.0855526
000300 db 8d bb 3c e5 d3 df 3d dd 2c d2 3c bc 37 84 bd
       0.02289479 0.109290875 0.025656158 -0.06455943
000310 62 c9 c3 be eb 8b 6b bd c3 b8 51 bd 01 0b c9 3d
       -0.3823958 -0.057506483 -0.051201593 0.09816552
000320 38 e2 28 bf 39 54 e1 3d 59 c4 a8 be ad 5a 24 be
       -0.6597018 0.11002392 -0.329623 -0.16050215
000330 0b 4f 4b bd 85 93 16 bd d2 a3 3c be c4 29 3a bf
       -0.049635928 -0.03676178 -0.18421867 -0.7271998
000340 18 68 42 3e 20 11 e5 bd b3 75 eb 3d d2 69 25 3d
       0.18985021 -0.11184907 0.11497059 0.04038412
000350 f2 34 49 bf a8 46 2f 3e 3d be 01 3e b7 51 8f 3d
       -0.78596413 0.17116797 0.12670226 0.06998008
000360 fa 20 33 3d e9 23 1e be ad 09 ff be 59 d5 4c 3e
       0.04373262 -0.15443386 -0.4981207 0.2000326
000370 2f 0b 00 be c2 9e c0 3d 9e 06 e9 bf f7 00 e7 3d
       -0.12504266 0.09405281 -1.8205144 0.11279481
000380 64 15 17 3e 46 51 22 3e 02 5c 51 3e 53 31 99 3d
       0.14754254 0.15851316 0.20445254 0.07480111
000390 f9 16 34 3f 2c 7e a3 3c d2 20 65 3d 16 86 b7 bf
       0.70347553 0.019957624 0.055939503 -1.4337795
0003a0 8e c3 79 3d 74 fa 74 3d 0e e1 b7 be cf cc 27 3d
       0.06097751 0.059809163 -0.3591389 0.040966805
0003b0 b6 fe c1 3e 74 07 97 3d 93 70 4f 3c 0b 8f de bc
       0.37889642 0.073744684 0.012661117 -0.027167818
0003c0 ea cd b7 be 26 6a 33 3f 0a 29 ab 3d 90 2a 33 3e
       -0.35899287 0.70083845 0.08357437 0.17496705
0003d0 17 bd de 3d f6 9e 10 bf f8 ab 3b bf fa 9b ae 3c
       0.1087591 -0.56492555 -0.7330928 0.02131461
0003e0 3d f1 5a 3e 51 1b 0e be bf 77 90 3c d5 e2 3d bf
       0.21381088 -0.13877608 0.017635224 -0.74174243
0003f0 a6 95 b0 3d 8c ed d3 be bd 85 5b 3e b4 91 2a be
       0.08622293 -0.4139217 0.21437736 -0.16657144

fc2.bias f4 [100]
000000 1a 65 bc bc 4f 8e f5 3d e4 8c 80 3d 76 a8 56 bc
       -0.022997428 0.11990034 0.06276873 -0.013101688
000010 43 95 ea 3d 12 f7 33 bc a5 74 38 be dc 40 30 be
       0.11454251 -0.010984199 -0.18013246 -0.17212242
000020 06 69 04 be 7a e1 29 3d bf 45 4a 3d b1 bd de 3c
       -0.12930688 0.041474797 0.04938292 0.027190061
000030 ab 53 62 3d 07 67 79 bd 15 eb c7 3d c4 e2 4b 3d
       0.055255573 -0.06088927 0.09761635 0.049776807
000040 65 87 cf 3d 47 9f 8f bd 69 37 3d 3e 38 49 d3 3d
       0.10133246 -0.070128016 0.18478169 0.103167
000050 38 6e ad bc 8b 41 0e bd c3 9d 1d bd dc 15 99 3d
       -0.02117072 -0.034730475 -0.03848053 0.074748725
000060 dd 28 8e bd 70 99 0f 3d c3 6f d2 3b 79 ad bf bd
       -0.06941388 0.03505844 0.0064220144 -0.09359259
000070 03 80 4c 3d 27 39 12 bd b3 60 bd bd 61 fe af be
       0.04992677 -0.035699036 -0.092469595 -0.34373763
000080 aa 02 04 3e a3 d2 ec 3c da 7e 12 3e 5b 7a 0c 3d
       0.12891641 0.028909033 0.14306203 0.034296375
000090 f4 33 f0 3c 4b 4e 13 3e 2b 86 c7 bc 7a 96 c8 3d
       0.029321648 0.14385335 -0.024355968 0.09794326
0000a0 76 44 c2 bc d8 61 94 3d fa 87 44 be 78 6b 20 3e
       -0.023714285 0.07245225 -0.19192496 0.15665996
0000b0 e5 73 3d 3e 5e ab 06 3d c9 0f ab 3d ad d8 5c 3d
       0.18501242 0.032878272 0.0835262 0.053917576
0000c0 d5 86 09 3e 12 56 a2 bd d4 20 ff 3d ca d8 c6 3d
       0.1343034 -0.07926573 0.12457433 0.09709318
0000d0 bc 7d b8 3d 5a 33 97 3d 53 ed ee 3d 86 5a ac 3d
       0.09008357 0.073828414 0.1166636 0.084157035
0000e0 2c 74 c1 3b ae 95 0b be 29 68 fd bd 3e c9 27 bd
       0.0059037413 -0.13631317 -0.123733826 -0.040963404
0000f0 48 71 f6 3d 70 28 6e bd d3 a2 a2 be b4 8c 9b 3d
       0.120333254 -0.058144033 -0.3176485 0.07595196
000100 de 05 47 3e f1 56 51 3d 11 bf 4e 3d 04 2a 33 be
       0.19435832 0.051108304 0.050475184 -0.17496496
000110 9a aa 46 3e bc 6d f2 bd f9 9a ff bd 12 0a af 3d
       0.19401017 -0.118373364 -0.124807306 0.08546843
000120 9a 98 42 be 89 e2 fa 3d cb 36 2f bc 53 a1 32 3d
       -0.19003525 0.122502394 -0.010694216 0.043610882
000130 6e a8 f5 bd 68 31 e5 3c f2 c3 5d bd a1 f7 94 bd
       -0.11995016 0.02797766 -0.054141946 -0.07273794
000140 34 9d 59 3a 53 1b cd 3d 02 e2 96 3c d3 68 16 be
       0.0008301318 0.10014977 0.018418316 -0.14688425
000150 b1 bc 30 bd 94 f6 54 bd 0d ba 83 3b 37 aa a4 3d
       -0.0431487 -0.051992968 0.0040199817 0.080402784
000160 a0 ed 7d 3e 30 d9 05 3e 66 68 0c be 6c 36 f6 bd
       0.24797678 0.13071132 -0.137117 -0.12022099
000170 b2 07 85 3d 78 82 61 bd 1d bc 8e 3d 7c 25 16 3d
       0.064956084 -0.055056065 0.069694735 0.03665684
000180 18 1a ee 3d df 41 09 3d d6 04 45 3e 3d 97 4f bc
       0.11626071 0.033510085 0.19240126 -0.012670335

fc3.weight f4 [1, 100]
000000 75 10 0f bf 1b 63 10 be 89 7d 10 bf 16 ea 25 bf
       -0.55884486 -0.14100306 -0.5644155 -0.6481031
000010 32 58 31 be b5 cf b2 3e 03 4f 9d bf 64 7f f1 3e
       -0.173188 0.34924093 -1.2289737 0.47167504
000020 49 d3 51 3e 77 9f 3d 3e a4 97 56 3e 16 58 91 3d
       0.20490755 0.18517862 0.20956284 0.07096879
000030 48 4b 0b 3e ba cb 39 3e f6 0d 19 bf c8 ca 60 3e
       0.13602936 0.18144122 -0.5978693 0.21952355
000040 f1 06 21 3e c6 cf d7 3d 28 8b a5 be 3c b8 80 3e
       0.15725304 0.105376765 -0.3233273 0.2514056
000050 a1 22 f0 3d 8c f0 94 3e e5 1e 9c 3d 36 65 31 bf
       0.11725355 0.29089773 0.0762308 -0.6929506
000060 46 35 75 3f f1 d6 5c bf 30 fc 3a 3f f3 ee 61 3f
       0.95784414 -0.86265475 0.7304106 0.8825523
000070 97 61 ea be b1 34 98 bd 11 26 9b 3d 4d cd 40 c0
       -0.4577758 -0.07431925 0.0757562 -3.0125306
000080 e0 67 0f bf 15 d3 85 3e b7 e4 53 be f7 ad 03 3c
       -0.56017876 0.26137605 -0.20692717 0.008037082
000090 f5 35 c0 bc 85 09 36 bf 9d 49 38 3f 5a 02 4d 3c
       -0.023463229 -0.71108276 0.71987325 0.012512768
0000a0 6b 56 8e 3d 4f aa 9a 3e aa dc a3 3d 15 2f 27 bf
       0.06950077 0.3020806 0.08001073 -0.65306216
0000b0 61 bf 6b be b7 3c 3f 3e 7d a0 62 3e b0 b1 8e bf
       -0.23022224 0.18675505 0.22131534 -1.1147976
0000c0 bf a4 30 bc ac 0c 10 3c 9e 88 80 3d 4a 93 0c bf
       -0.010781466 0.008792084 0.06276058 -0.54912245
0000d0 46 d1 59 3e c6 7b 19 bf e3 70 27 bf 8b f9 2c bf
       0.21271238 -0.5995449 -0.65406626 -0.6756827
0000e0 33 65 08 3f eb 01 f1 be cc a1 ca bb 5c 25 75 ba
       0.5327942 -0.47071776 -0.0061838385 -0.0009351575
0000f0 ac a1 9e be 32 62 9c 3c 0c 89 83 bf 36 2e 6d bd
       -0.3098272 0.019089792 -1.0276198 -0.0579054
000100 e4 e3 dd bd 79 e0 3a 3e b0 44 db 3d 53 b3 90 bf
       -0.10834482 0.18249692 0.107064605 -1.1304725
000110 59 34 38 bf 9c 78 25 bf ca 73 22 bd 98 a8 3f bf
       -0.71954876 -0.6463716 -0.039661206 -0.7486663
000120 b4 ac a4 3e b2 d8 0f bf 1d c7 07 3d 91 82 e9 ba
       0.32163012 -0.56190026 0.033148874 -0.0017815401
000130 29 0e 9c bc 17 24 94 39 8f fb b9 3e 92 e3 f2 3c
       -0.01904972 0.0002825565 0.36324736 0.02964953
000140 3d 7d 22 3f b6 f3 01 bf 80 97 70 3b e0 1b 35 bf
       0.6347235 -0.507625 0.0036711395 -0.7074566
000150 57 76 d0 3c 28 d5 98 3e dc de 35 3d 9e 19 8a 3c
       0.025447054 0.29850125 0.04440199 0.016857918
000160 bc 49 39 bf 3f 54 fe be ee c0 7d bf 73 01 3b 3e
       -0.72378135 -0.4967365 -0.9912251 0.18262272
000170 2d 0a d4 3d 6c ca 57 3f 6e bb bc bb 67 a0 2f 3f
       0.103535034 0.84293246 -0.005759648 0.6860413
000180 72 a5 1c 3b ad c3 0e 3d cc bb f1 bc 6b df cc 3d
       0.0023902324 0.03485458 -0.029508494 0.10003551
