models/webshell_mlp.pth (torch, 6650 bytes, 5 tensors)

fc1.weight f4 [5, 200]
000000 b0 9a c9 3d 5b 8c 2a 3e f1 f0 92 3d 6a 69 00 3e
       0.098439574 0.16655104 0.07174862 0.12540212
000010 8c bb 47 3e 33 f1 3f bd 49 d4 ae 3a 1d 95 b6 3c
       0.19505137 -0.046860885 0.0013338412 0.0222879
000020 5c 1c f3 3c 86 f5 cc bb 3d e6 09 bc d9 9f 82 3d
       0.029676609 -0.0062548546 -0.0084167095 0.06378145
000030 5c 0a cf 3c ac ef 9e 3d 4e 3e 1f 3d 66 22 d2 bc
       0.025273494 0.077605575 0.038877778 -0.025651168
000040 02 e3 95 bd 9a 9c 96 bd 42 74 23 3c 37 af 4c 3d
       -0.07318689 -0.07354088 0.0099764485 0.049971785
000050 b7 7f 39 bd c9 84 9f 3c 19 df d9 bb 84 bf b1 bc
       -0.045287814 0.019472497 -0.0066489098 -0.021697767
000060 f2 32 c5 bc 1d 9b f5 3c 40 a8 1b 3d 74 b5 91 bd
       -0.024072144 0.02998119 0.038002253 -0.071146876
000070 ec 91 8a bc 68 ad 5d 3d 0b f7 ea bc ed 02 ac bd
       -0.016915284 0.05412045 -0.028682252 -0.083989955
000080 e2 e3 f1 3c e1 b8 26 bc a2 82 a6 3d bd b1 eb 3d
       0.029527608 -0.0101759145 0.08130385 0.1150851
000090 1c 54 cd 3c a8 18 97 3b 54 94 53 3d 97 8b af 3d
       0.02506452 0.0046110936 0.05165513 0.085715465
0000a0 47 37 88 3d ff e1 1f 3d de 01 c0 3c f5 c3 a6 bb
       0.06651168 0.039033886 0.02343839 -0.005089278
0000b0 74 5c a7 3d 55 b3 ca 3d 9e d2 d7 bc 1d 94 57 bc
       0.08171931 0.09897486 -0.026345547 -0.013157872
0000c0 10 0b 66 3d d9 59 db bc 98 32 a0 bd be bb 7f bd
       0.056162894 -0.026776241 -0.0782215 -0.062434904
0000d0 2f 73 3d 3c cf cc 4f 3c 70 05 b0 3d 72 6d 30 bd
       0.011563106 0.0126831075 0.08594787 -0.043073125
0000e0 64 d1 ab 3d bb d6 e3 bc f3 61 3b 3d 8e 1b c7 bc
       0.083895475 -0.027812352 0.04574771 -0.024305131
0000f0 21 ee 55 3d 19 0e 9a 3c 49 91 0e bc 98 5e fb bc
       0.05222905 0.01880555 -0.008701631 -0.030684754
000100 e4 09 9a 3d b0 96 3c bd 03 af 28 bd 86 80 82 3d
       0.07521418 -0.046042144 -0.04118253 0.0637217
000110 12 b9 92 bc 40 c3 27 3d 2b 35 e3 3d c9 a6 c9 bb
       -0.017910514 0.04095769 0.11094125 -0.0061539155
000120 c5 7a 59 3d 40 b8 57 3d b1 8c c6 3d 94 c6 37 bd
       0.053095598 0.05266595 0.096948035 -0.044867113
000130 29 fa 94 3d e7 7d ab 3c 16 b5 30 3b 36 05 b3 bd
       0.07274277 0.020934058 0.0026963404 -0.08741228
000140 21 89 46 3d fb 74 cd 3b 47 83 16 bd 5f 67 87 3d
       0.04847062 0.0062700487 -0.03674629 0.06611513
000150 cd ca 93 bc 76 ac 93 3b ac f5 9d 3d 50 57 e4 3c
       -0.018041039 0.004506643 0.07712874 0.027873665
000160 f2 2b 8e 3d c3 fe b1 bc cc df 03 bd 13 df 69 bc
       0.06941976 -0.021727925 -0.03219585 -0.014274376
000170 77 27 97 3d 4d 37 a5 3d 86 da 98 3d a2 27 fc 3b
       0.07380574 0.080671884 0.07463555 0.0076951543
000180 2d c2 5f 3d eb 24 94 bc 8f 76 52 bd 2d ac 98 bb
       0.05462854 -0.01808401 -0.051382598 -0.004659197
000190 92 ee 22 bd 83 89 91 bd f9 2b 99 bd 80 d2 b5 bc
       -0.0397783 -0.071063064 -0.0747909 -0.0221951
0001a0 1a 91 1e 3b 80 f5 66 bd 10 25 9f 3d b9 b9 9d 3d
       0.0024195374 -0.05638647 0.07770741 0.077014394
0001b0 a2 49 b0 bd 85 38 66 3d 8d ce 24 bc f3 08 6e 3d
       -0.08607794 0.056206245 -0.010059011 0.058114003
0001c0 62 d5 8a 3d b9 40 b9 bc de 07 9b 3b 12 2f 3b bc
       0.06778981 -0.02261387 0.0047311625 -0.011424797
0001d0 05 fc 9b 3b 27 8b 07 bd b2 f2 8e 3d 0b 87 8a bc
       0.0047602677 -0.03309169 0.06979884 -0.016910097
0001e0 b6 98 ab 3c 84 05 e1 bc b1 79 2c bd 8c c6 7d bd
       0.020946842 -0.02746845 -0.04210824 -0.061956927
0001f0 54 4b 86 bd 4e cd d4 bc 1d db 18 3c 10 ae 0c bd
       -0.065573364 -0.025976803 0.009329584 -0.034345686
000200 ba b7 2b bd 75 7c 73 bb 88 81 87 3c ad db b2 3c
       -0.041923262 -0.003715304 0.016541258 0.021833265
000210 ee 14 2a bd 42 89 49 bc 1a 06 a7 3d 36 2b 9a 3d
       -0.041523866 -0.012300791 0.08155461 0.07527773
000220 f7 00 6a 3d d9 d9 50 b6 ad 2a 36 bc 0e 40 03 bd
       0.057129826 -3.112122e-06 -0.011118573 -0.03204351
000230 97 23 83 bc cf 75 a7 bc 85 20 42 bd 32 22 6e bd
       -0.016008181 -0.020441918 -0.047394294 -0.05813808
000240 d1 98 72 bc 04 22 65 bd c7 0c 31 3d fd 75 6a 3d
       -0.014806942 -0.055940643 0.043225076 0.05724143
000250 fe 29 99 bb a8 67 c4 bc e0 3b ba 3c e9 e8 3a 3d
       -0.0046741953 -0.023975208 0.022733629 0.045632277
000260 ff de 0c bd 1c 39 15 bd 16 8e 83 bc ee 02 cf 3b
       -0.034392353 -0.036431417 -0.016058963 0.006317488
000270 64 88 64 bd 57 52 59 bc 95 da 51 bd 2d 59 9f bc
       -0.055794135 -0.01326426 -0.051233847 -0.019451702
000280 fb c5 1e 3c 45 37 f3 bc 4f 83 45 bd 2a 4b 19 3d
       0.009690757 -0.02968944 -0.04822093 0.037425198
000290 43 58 15 bd 76 6e 8a bb d7 c7 9a 3d b6 18 1d 3d
       -0.036461126 -0.0042245938 0.07557648 0.038353644
0002a0 4e bb ba 3c 36 e2 2b 3d 74 37 21 3c b2 f9 07 bd
       0.022794392 0.04196378 0.009839881 -0.033197112
0002b0 58 19 e7 bc 18 9e a1 3d 22 bc 2e 3c 32 6e 24 3d
       -0.028210327 0.07891482 0.010664972 0.040144153
0002c0 8e 60 86 bd 4b 96 a7 3d 63 14 6a bd e8 0d bb bb
       -0.06561385 0.08182963 -0.05714835 -0.005708445
0002d0 27 f1 30 bd 72 7d ae bd b1 25 c7 3c 70 51 27 3d
       -0.04319873 -0.085200205 0.024309965 0.04084915
0002e0 f0 b4 0b bd a4 5c a7 3c 59 5e 7e 3d 03 a7 06 3c
       -0.034108102 0.020429917 0.062101696 0.00821853
0002f0 e8 db 18 3d c8 40 c5 3c 3e ed 99 bc 5d 5b 55 3d
       0.037319094 0.024078742 -0.018789884 0.052089084
000300 68 55 56 3c 8e 64 3f bc ad 8a b0 bb bd b2 34 bd
       0.013081886 -0.011681689 -0.005387625 -0.04411577
000310 f4 1a 88 bc 3c f9 36 3d de 41 39 bd 29 2d 59 bc
       -0.016614415 0.044671282 -0.04522883 -0.013255396
000320 f6 2a fa 3d 9e 2b 8f 3d b6 a7 e3 3d c1 68 98 3d
       0.122152254 0.06990741 0.11115973 0.07441855
000330 fa 48 a4 3d 0c 67 e9 3d da 0f f4 3b ee 9f 03 3d
       0.08021732 0.11396608 0.0074481787 0.032134943
000340 c0 e0 6c 3d d5 03 99 3d bb 15 06 3d e6 98 cd bc
       0.057831526 0.07471434 0.032735568 -0.025097322
000350 02 de 5e bd f9 e3 14 3e c8 39 d2 3c 1b 90 68 bd
       -0.054410942 0.1454009 0.025662318 -0.056778055
000360 41 69 52 bc 1e ba 88 3d f1 1e 8e 3d f8 97 e3 3d
       -0.012842477 0.06676124 0.06939495 0.1111297
000370 63 23 3d bb fd 6c 48 3d 73 47 f3 bb 14 ac 78 bd
       -0.0028860203 0.048932064 -0.007424289 -0.06071098
000380 35 0b cc 3c 88 24 1f 3c 6b e3 6e bc a5 3b af bc
       0.024907688 0.0097133 -0.014580588 -0.021390745
000390 1e 4e 50 bd 5f b4 85 3a 2a ad a5 bd ef a7 c6 bd
       -0.05085575 0.001020085 -0.08089669 -0.096999995
0003a0 5c 0e 02 bc b8 d2 c9 bc 91 24 a5 bd e2 c7 9b 3d
       -0.007937994 -0.024636611 -0.08063615 0.07606484
0003b0 59 f7 9a 3d c7 92 33 bc ce 65 29 3d 31 bf 2b bd
       0.07566709 -0.010960287 0.041356854 -0.04193038
0003c0 66 2d b1 3d d5 db 91 3d ae da 40 3d 61 53 de 3c
       0.08651237 0.07122008 0.04708355 0.027139368
0003d0 18 6d af 3b 46 be fe bb 32 7b bd 3c 13 06 04 3d
       0.005353581 -0.007774147 0.023130033 0.032232355
0003e0 04 cc ae 3d d2 79 72 3d 90 c5 82 bd 6d 7f 09 3c
       0.08535007 0.05919821 -0.06385338 0.008392197
0003f0 cb fc 2d bd ff 04 50 bd 13 cf c6 3d 6d 64 3c 3d
       -0.04247741 -0.050786015 0.09707465 0.04599421

fc1.bias f4 [5]
000000 8b 69 3a 3e 08 e2 24 3e 25 3f 6b bd 97 4a 08 3e
       0.18204324 0.16101849 -0.057433266 0.13309704
000010 1e 79 22 3e
       0.15866515

fc2.weight f4 [2, 5]
000000 5a 24 8e 3e 26 04 21 be 7c 6a 40 be f5 8f df be
       0.2776211 -0.15724239 -0.1879062 -0.43664518
000010 18 11 df bd bf 98 7d be e6 b9 1c bf de 1b 90 3e
       -0.10891932 -0.247653 -0.6122116 0.2814626
000020 c6 07 15 bf d0 03 bf be
       -0.58214986 -0.37307596

fc2.bias f4 [2]
000000 0c 54 da be 00 e2 7c 3e
       -0.42642248 0.24695587

fc3.weight f4 [1, 2]
000000 74 ca 34 3e 38 19 fd 3e
       0.17655355 0.49433303
